last_brain.pth (torch, 20031 bytes, 18 tensors)

fc1.weight f4 [30, 5]
000000 c2 10 36 3f 16 b4 d2 bd 9f 86 46 3f 4e f7 d3 be
       0.7111932 -0.10288255 0.77549165 -0.41399616
000010 9c 32 65 3f 78 2b b9 3d 9a 1e 0f be 84 45 f6 bd
       0.8953035 0.09041494 -0.13976517 -0.12024978
000020 0d 51 a1 be da e9 7c be af ce e9 3d d9 70 73 be
       -0.3150715 -0.24698582 0.11416375 -0.23773517
000030 9a 8e 24 3f e9 d2 3e bd 0d 5f 47 3e 36 3f 93 bc
       0.6428009 -0.04658786 0.19469853 -0.017974477
000040 4f c5 f8 be 8f 19 eb be 69 05 9d bd 61 b0 3e 3f
       -0.48588035 -0.45917937 -0.076670475 0.7448788
000050 da 18 63 bf 92 8c e5 3c 7c 69 2d 3f 54 39 72 3f
       -0.88709795 0.02802113 0.6773908 0.94618726
000060 ee 8c 09 bf ef 23 21 3f c0 37 db 3e cd 76 02 3f
       -0.53730667 0.62945455 0.4281597 0.50962526
000070 b8 56 40 be 70 0c 85 3e 5e 19 d0 3d 79 66 b0 bf
       -0.1878308 0.25986052 0.101610884 -1.3781272
000080 0e ef f0 bd 95 30 d2 3e 56 cb 37 bf 41 fd 1a 3c
       -0.11764346 0.4105269 -0.7179464 0.0094597945
000090 23 69 22 3f a0 a4 e6 be d4 41 1d bf ae 87 03 3f
       0.63441676 -0.45047474 -0.6142857 0.51378906
0000a0 b0 4d 07 bf 01 f0 35 3f 97 db 6d 3f e7 53 9b 3f
       -0.52852917 0.7106934 0.9291319 1.213498
0000b0 39 28 9f bf 84 79 0b be 0a 66 c2 bd 44 9f b1 3f
       -1.243415 -0.13620573 -0.09492119 1.3876729
0000c0 65 9a 04 bf db 1a f5 3d 0e 77 33 c0 76 f8 f0 be
       -0.5179809 0.11968013 -2.8041415 -0.4706456
0000d0 26 d9 25 c0 45 f7 74 be 55 c9 73 3e 27 75 09 3f
       -2.5913787 -0.23922451 0.23807271 0.53694385
0000e0 6d ec ed bf 3a 2f 01 3e c4 25 1d bf 63 39 5d 3e
       -1.8587776 0.12615672 -0.6138575 0.21603923
0000f0 76 bb a2 3e e9 e5 16 bf e1 a2 55 bf 6d ef 05 bf
       0.31783646 -0.58944565 -0.8345166 -0.5231846
000100 89 5c 30 3f 2a 19 30 3e 6c 0e 2f 3d c1 35 d8 3e
       0.688912 0.171971 0.042738363 0.4222851
000110 31 b7 48 bf 01 5f 16 3f 26 86 40 3f d0 a5 9f bd
       -0.7840453 0.58738714 0.75204694 -0.07795298
000120 12 0d cb bf b9 4a d0 be ce 0b 09 3f 0d c1 30 bf
       -1.5863364 -0.4068201 0.5353364 -0.6904457
000130 b8 14 42 3f 7e 91 44 be 7a e5 40 bf 9a 7f 0b 3f
       0.75812864 -0.19196126 -0.75350153 0.5449158
000140 f2 61 13 3e 0b c3 b5 3e 6c c8 99 3e f3 cd ab be
       0.14392832 0.35500368 0.30035722 -0.33555564
000150 02 00 ec 3d e7 da 37 3f 88 d6 21 c1 0b 91 9e 3e
       0.11523439 0.71818393 -10.114876 0.30970034
000160 b4 9a 80 bd a9 8b 5f be 76 39 60 3f 72 a8 3d bf
       -0.06279507 -0.2183062 0.8758768 -0.7408515
000170 9a 79 ee 3e 9f ec 60 3e d5 29 d6 3e 5d 87 b2 be
       0.4657715 0.21965264 0.4182879 -0.348689
000180 52 ab bc be f3 6b 4f be e9 7a aa be 32 30 c0 be
       -0.36849457 -0.20256023 -0.33296898 -0.3753677
000190 bd 3c bd bc 58 de 6b 3f d9 72 0b 3e 68 df fd be
       -0.023100251 0.92136145 0.1361803 -0.49584508
0001a0 3c 67 6a 3f 41 65 a3 3e 44 8f d2 3e 43 88 5a 3f
       0.91563773 0.31913188 0.41124928 0.8536417
0001b0 b5 3a dd 3e b0 20 45 bf 83 ce 56 bf bd 68 0a 3c
       0.43208852 -0.77003 -0.8390886 0.008447823
0001c0 df ca 84 bc 4d 52 d7 be 88 46 5a 3f 3d d4 59 3f
       -0.016210018 -0.42054978 0.8526387 0.85089475
0001d0 e3 e7 1d 3f 39 26 09 be f2 fe 65 be 50 55 12 be
       0.61681956 -0.13393487 -0.22460535 -0.14290357
0001e0 f2 22 05 3e 3d 64 0a 3f 17 0b 30 bf d1 2e c7 be
       0.13001612 0.540592 -0.6876692 -0.38902906
0001f0 e9 fd 1c 3f c2 18 01 bf fe ef d8 bd 28 d3 3a bf
       0.61324936 -0.504284 -0.1059265 -0.7297845
000200 47 ee 84 3e c5 6e 00 be a0 fa 01 3f c5 38 3b 3d
       0.2596304 -0.12542255 0.5077305 0.045708437
000210 4c 9c a3 bf 3b 4c 95 3f bf 41 ad bf bc 89 0c bf
       -1.2782073 1.1663889 -1.3535689 -0.54897666
000220 d4 2a 0c bf a4 46 c0 bd 47 00 2e bf 9d 7a 99 3f
       -0.5475285 -0.09388474 -0.67969173 1.1990544
000230 c6 48 2b bf 18 df cd 3e 2e 4a 77 3e 7a 6b 6e 3e
       -0.6690792 0.4020927 0.24149391 0.23283187
000240 a2 3b 96 3e 3b 52 1d c1 28 99 e3 3e 50 0b 50 bf
       0.2934237 -9.832576 0.44452786 -0.8126726
000250 0a b7 64 3e 56 78 0b 3e
       0.22335449 0.13620123

fc1.bias f4 [30]
000000 32 c0 8f be 8a 71 94 be 4c 50 f6 3e 9d 8f 30 3f
       -0.2807632 -0.28992873 0.48108137 0.68969136
000010 a0 70 25 3e 8a 7e dd 3c a0 c5 46 3f 55 6b 18 3f
       0.16156244 0.027037878 0.776453 0.59538776
000020 9a 56 f2 3d c3 a9 9d be 32 6d b9 3e 87 b0 98 3e
       0.11832924 -0.3079358 0.36216122 0.2982218
000030 c6 8a e4 bd 31 d8 de bd df e4 8d 3e 11 18 00 3f
       -0.111592814 -0.10881079 0.27713677 0.5003672
000040 c8 30 bd 3e b3 1c 67 3e f8 c3 0b bf e0 20 98 be
       0.3695128 0.22569542 -0.545959 -0.29712582
000050 34 8a 12 bf 50 ec 5f 3e 1f 10 40 3f ed 56 94 bf
       -0.5724213 0.2186749 0.750246 -1.1589028
000060 13 be 15 3f de bf 4a 3f 53 23 4c 3e 5c 8d 1c 3f
       0.58493155 0.79199016 0.1993535 0.611532
000070 f5 50 b5 3e fc aa a5 3e
       0.35413328 0.32357013

fc2.weight f4 [30, 30]
000000 29 fb d4 bf a5 3d 17 be 9a be 07 3f b7 df 2c 3f
       -1.6639148 -0.1476961 0.5302521 0.6752886
000010 e9 32 4a bd fd 7a e0 3e b4 87 27 3e fd bf 93 be
       -0.049364958 0.43843833 0.1636036 -0.28857413
000020 7e 64 51 be b6 53 fd bf 4c 81 03 bf 55 68 fa 3e
       -0.20448491 -1.9791172 -0.51369166 0.48907724
000030 85 3b 8f bf 9f 18 ac be 81 81 92 bf 85 a3 67 3d
       -1.1190039 -0.33612534 -1.1445771 0.05655243
000040 7f 94 a3 3e db da 1f bb 84 1a 76 3f d0 40 39 bc
       0.3194923 -0.0024391923 0.9613421 -0.011306956
000050 a0 a3 29 be 87 63 33 3e 4b f8 f3 be 32 e4 20 c0
       -0.16566324 0.17518435 -0.4765037 -2.513928
000060 60 ce c4 3d a5 fa 2e 3e 7b d0 bb 3c 26 97 61 3e
       0.096096754 0.17087801 0.02292656 0.22030315
000070 a9 c2 6f 3e 86 c6 66 bf 74 80 e0 bd 14 7d 0d 3e
       0.234141 -0.9014667 -0.109620005 0.13817245
000080 88 b4 bb bd 7d 64 6b be fc 59 0b bf 30 c3 46 3e
       -0.09165293 -0.22987552 -0.5443418 0.19410396
000090 14 0b 7d 3f a8 9d 74 3e b8 ce c9 bf c7 5d e7 be
       0.9884503 0.23888266 -1.576621 -0.45188734
0000a0 0d 3b 7c bf ed 94 98 bf b7 1b 9f 3e 60 13 16 bd
       -0.98527604 -1.1920449 0.31075832 -0.03663957
0000b0 a4 6a 16 3e ec 90 07 3e 11 10 64 3e 6c ad 44 c0
       0.14689118 0.13238877 0.22271754 -3.0730848
0000c0 2d 9a db bf 58 f9 8e bc db e9 36 3f d4 5e fe 3d
       -1.7156426 -0.01745288 0.71450585 0.12420431
0000d0 6a 5e 18 be 21 c6 59 3e 15 bd 83 3e 9c c2 09 bf
       -0.14879766 0.21266986 0.25730196 -0.53812575
0000e0 f4 59 ae 3e 31 31 17 be e3 ef 26 be 37 c5 1e c0
       0.34053004 -0.14764859 -0.16302447 -2.480787
0000f0 e5 0d ea 3e 68 d2 be bc e2 a1 01 bf f2 d6 41 be
       0.45713726 -0.023293689 -0.5063764 -0.18929651
000100 15 31 89 bf 63 5a 90 bd eb 6f 29 c0 48 69 22 3e
       -1.0718104 -0.0704849 -2.647456 0.15860474
000110 c2 28 ab bf c4 74 9e 3d 88 c6 69 3e eb 50 c3 3c
       -1.3371813 0.07737115 0.2282964 0.023842296
000120 3d ce 9f 3e 3a ea 93 3e 50 af 13 3f 3d b7 40 bd
       0.31212035 0.28889638 0.5768938 -0.04704975
000130 98 a3 60 be df 2d cf 3f 10 8d b8 3e a4 0a 91 3d
       -0.21937406 1.6185874 0.36045122 0.07082108
000140 01 f8 cb 3e 29 9d 15 c0 31 45 78 3e 72 10 8a be
       0.3983765 -2.3377173 0.24245144 -0.26965672
000150 0b ca bd 3c f4 9e d1 bf e2 fd fe bf ce 97 93 3c
       0.02316763 -1.6376634 -1.9921229 0.018016722
000160 73 9f 09 be 57 29 6c bf cb 5c 10 3e c8 59 9c bc
       -0.13439731 -0.9225058 0.14097898 -0.01908578
000170 33 4a 52 3e a6 2b d0 be 02 6f af 3e b0 72 af be
       0.20536117 -0.406583 0.3426438 -0.34267187
000180 77 1c bf be c6 5f c6 bf db 52 25 3e 4e 91 c3 be
       -0.37326404 -1.5497978 0.16144888 -0.38196796
000190 f7 25 77 bf f5 17 f7 be a0 1e c8 3c 9f 0d d4 3e
       -0.96542305 -0.48260465 0.024428666 0.41416642
0001a0 05 76 53 be ff da 63 c0 51 d6 1b 3e f7 9a 95 bf
       -0.2065049 -3.5602415 0.15218474 -1.1687917
0001b0 4c 39 d0 3c 77 17 ca bd 3b c7 26 3e 75 64 c5 3d
       0.025417946 -0.09867757 0.16286938 0.09638301
0001c0 4f 51 1a c0 0d f7 c2 be 0a 67 57 c0 79 9a bd 3e
       -2.4112127 -0.3807911 -3.365664 0.37031916
0001d0 f8 2d 72 bf 62 79 03 bf 1a 27 48 3f 9f 2c e0 3e
       -0.9460139 -0.5135709 0.78184664 0.43784043
0001e0 40 b6 8c bd 7c 4c 67 3d 0f 48 15 bd 88 20 20 3e
       -0.06870699 0.056469426 -0.036445674 0.1563741
0001f0 8a 45 14 be fb c8 02 be 27 f2 5e be 88 9f 01 3e
       -0.14479652 -0.1277198 -0.21772061 0.12658513
000200 72 6d f5 3d ce db 75 3c 45 a4 ec bd fc 3d 1f be
       0.11983766 0.015006019 -0.115547694 -0.15550989
000210 ec 1a 53 bd 9b ef 56 3c 57 66 e0 bd a1 07 15 bd
       -0.051539347 0.01311865 -0.1095702 -0.03638423
000220 05 4f 8c bb 1d 28 03 be ef 55 4d 3b 30 30 cd 3c
       -0.004281881 -0.12808271 0.0031331738 0.025047392
000230 52 21 0d be e4 2a 8d 3d de 48 0f be 5d 82 43 be
       -0.13782242 0.06892946 -0.1399264 -0.19092698
000240 ec c4 b2 bd 41 ef 5a be a3 11 1f be 80 b1 62 3c
       -0.08728966 -0.2138033 -0.15534072 0.013836265
000250 5b 1d 39 be c6 c7 4b bd bc 42 8a bf 48 3f 0c be
       -0.18077604 -0.049751066 -1.0801616 -0.13696015
000260 83 e0 fa 3d 72 34 8b 3e 65 37 37 3d 3f f0 71 3e
       0.122498535 0.2718845 0.044730563 0.23626803
000270 24 7e 17 3e 68 12 9e 3e 8d 19 87 3e 82 f0 1a be
       0.14794213 0.30873418 0.2638668 -0.15130809
000280 4c 4d 40 3e 6d 8d 23 be cd d5 6c be 16 d8 b3 be
       0.18779486 -0.15971918 -0.23128434 -0.35125798
000290 fc 46 42 3e 5e 55 48 be 72 a1 4f 3e 26 55 ad bf
       0.18972391 -0.19563815 0.2027643 -1.354161
0002a0 c4 48 a7 be c3 7f 27 be bd 6a 36 bc e5 92 8b 3e
       -0.32672703 -0.16357331 -0.011133847 0.2726051
0002b0 90 b5 81 3e 4d 5c b0 3f 2b 78 27 3f 1e 5c 04 3d
       0.25333834 1.3778168 0.65417737 0.032314412
0002c0 bd bb 0f 3f f1 71 a6 bd 5f 7b 83 3e f5 0d a6 3e
       0.5614584 -0.08127201 0.25680062 0.32432523
0002d0 b8 53 1c 3c 0f 30 08 be 2d 04 57 3e 4d a9 06 3f
       0.0095414445 -0.13299583 0.20997687 0.5260208
0002e0 3e 60 bb be cd 8d 4d 3e e3 e2 b2 bf 12 5b 08 3e
       -0.36596864 0.20073624 -1.397549 0.1331599
0002f0 a7 d9 06 3f 2d 5a 04 3f 8a 68 21 bf fd be d1 bf
       0.5267586 0.517001 -0.6305014 -1.638641
000300 b0 8b 04 3f fa 5a 0e 3e 61 63 93 be 24 65 ab 3e
       0.51775646 0.13901892 -0.28786758 0.33475602
000310 6c 1f 24 3e 64 94 7b c0 eb cd 14 3f 98 f1 17 3e
       0.16027611 -3.930932 0.58126706 0.14838254
000320 e9 e0 89 3d 5c 28 a8 3e 35 c1 ca bc 02 4c 66 be
       0.06732351 0.32843292 -0.024750331 -0.22489932
000330 f3 7f a5 3e 83 e8 0a c0 ed 7a 15 bf 52 cf 8a bc
       0.3232418 -2.1704414 -0.58390695 -0.016944561
000340 9e 9a 8a be bb e8 9e c0 31 ef 84 bf 6a 3f 20 3e
       -0.2707109 -4.9659095 -1.0385495 0.1564919
000350 24 c3 1d 3e 4f f9 6f 3e 7f 0c a2 bc 76 7b 86 3e
       0.15406471 0.23434947 -0.01978135 0.26266068
000360 c8 ef eb 3d 70 0b 31 be 70 4d 84 3e ce 93 44 bf
       0.11520344 -0.1728952 0.2584033 -0.7678803
000370 da 31 4c c0 0b 03 65 bf 50 a4 d1 be 69 69 a0 3e
       -3.1905427 -0.8945777 -0.40945673 0.31330422
000380 04 d8 25 3f dd c8 7c bf 02 97 cf 3e 26 c0 9a 3f
       0.6478274 -0.98743993 0.40544897 1.2089889
000390 12 15 a5 be c5 4e f0 bd 06 fa b4 3f 98 3d b0 3d
       -0.32242638 -0.11733774 1.4138801 0.08605498
0003a0 87 7f e8 bf 84 89 94 3f 25 b2 00 be 59 cc b2 be
       -1.8163918 1.1604466 -0.12567957 -0.3492153
0003b0 e2 7e 0d 3e 3d 0f 96 bf b5 d9 19 3f 84 c0 55 bf
       0.13817933 -1.17234 0.6009782 -0.8349688
0003c0 b9 16 19 3e 48 a6 02 3e bb de 8c 3e 26 d0 1a 3f
       0.14950074 0.12758744 0.2751368 0.6047386
0003d0 0d 38 32 3e 32 3f ea 3e db bc 40 bf a9 fe 19 3f
       0.17404194 0.4575134 -0.7528817 0.60154206
0003e0 3d 50 81 be da 73 38 bc e1 d7 fd 3e 6f db f5 bd
       -0.2525653 -0.01125809 0.49578765 -0.12004744
0003f0 cf a2 82 3e 96 f1 b4 3e 86 7b d9 bd 3a b6 dc 3e
       0.25514838 0.35340565 -0.10619263 0.43107778

fc2.bias f4 [30]
000000 e1 a4 25 3f fe 58 1d 3e 02 57 a9 be d6 c4 72 3e
       0.6470471 0.15365979 -0.33074194 0.237079
000010 d8 02 40 be c5 6f 06 3f d9 08 1d 3d 64 c2 ba 3e
       -0.18751085 0.52514297 0.038338516 0.36476433
000020 11 b9 cb 3e 66 d6 27 bf 83 5d 47 3e 70 bb 85 3c
       0.39789632 -0.6556152 0.19469266 0.016324729
000030 4b cf 93 be 3a ac 58 bd 47 f9 ad be 28 b9 ae bd
       -0.2886909 -0.052898623 -0.33979246 -0.085314095
000040 f1 00 7f bd 88 6c cd 3e 74 2b 49 3d bc a3 c7 bd
       -0.062256757 0.40121865 0.049113706 -0.09748027
000050 25 c7 29 be 00 b7 75 3e 6d 3d bf be c4 7e 1a be
       -0.16579874 0.2399559 -0.37351552 -0.1508742
000060 3f 42 2d be 01 3f 04 3f ef 0b c9 3e d9 f9 9e be
       -0.16919802 0.51658636 0.39266917 -0.31049994
000070 8c bf 98 bd 8d 7e b4 bd
       -0.0745841 -0.088132

fc3.weight f4 [3, 30]
000000 da 81 b0 bf 48 a5 83 3f f8 64 34 bf 9a 41 7d bf
       -1.3789628 1.0284815 -0.70466566 -0.98928225
000010 81 33 cf 3b 0c 65 2f be 41 fd 52 bf 43 a9 1f bf
       0.0063232784 -0.1712839 -0.82417685 -0.6236765
000020 8e 81 e7 be 35 2e 44 bf 8b f5 7e bf 5c a5 20 3f
       -0.4521603 -0.76633006 -0.9959342 0.6275232
000030 a4 63 1d 3f c4 ca 09 3e 4a 3b 59 bf e7 56 13 be
       0.61480165 0.13456255 -0.8485609 -0.1438862
000040 fa 60 ae be f7 0a 0e bf 58 2b 26 bd cd 73 3c 3f
       -0.34058362 -0.5548548 -0.04056868 0.736142
000050 c8 27 4b 3f b6 97 05 be 15 2d 06 bf 72 f9 01 3e
       0.79357576 -0.13046154 -0.5241254 0.12692812
000060 2f 92 df bc f0 61 fe be 1a 95 16 c0 75 ac e0 3e
       -0.027291385 -0.49684095 -2.3528504 0.43881574
000070 54 7d 38 be 24 39 b5 bd e3 00 37 bf 5c 61 29 3f
       -0.18016559 -0.08848789 -0.7148573 0.66164184
000080 5c f4 59 bf 94 98 0c c0 3f 29 0a be d8 18 34 bf
       -0.8513849 -2.1968126 -0.13492297 -0.7035041
000090 3c 76 de be c6 22 87 bf 63 bb c7 be b1 86 6d bf
       -0.4344958 -1.0557487 -0.39010152 -0.9278365
0000a0 e6 8b 48 bf b8 69 b9 3f c5 55 03 3f 41 94 e9 3d
       -0.7833847 1.4485388 0.5130275 0.1140523
0000b0 52 56 13 bf 62 ed 2d 3f b3 46 a5 bf 96 d5 88 bf
       -0.5755359 0.6794034 -1.2912201 -1.0690181
0000c0 20 75 ec 3d 96 a0 1d 3f 20 7c 96 3f c2 70 1b 3f
       0.11545777 0.6157316 1.175663 0.6071893
0000d0 28 37 ba be 60 f4 6c bc e1 0c dc 3d ff 37 f6 bc
       -0.36370206 -0.01446256 0.10744644 -0.030055998
0000e0 49 03 4d c0 8b 3a c6 bd 46 eb 8e bc db 3b d3 bb
       -3.2033255 -0.09679135 -0.017446171 -0.0064463443
0000f0 d2 c5 9e bf 86 b7 72 3f 5b 78 de be 5e 61 a3 3e
       -1.240412 0.94811285 -0.434512 0.31910223
000100 0c c7 96 bc c3 c3 61 3e 10 c0 22 bf 51 f5 4f bf
       -0.01840546 0.22047333 -0.63574314 -0.812337
000110 61 5e 2b bf 12 42 8e bf 32 a8 50 bf c3 ec 80 3f
       -0.66940886 -1.1113913 -0.81506646 1.0072254
000120 4b ce 0c 3f ec e1 24 3e e5 ca c5 be a9 18 5f bf
       0.5500228 0.16101807 -0.3863136 -0.87147003
000130 ef 3e 15 3e c5 f1 02 bf 08 80 ea 3d 38 6b 41 3f
       0.14574789 -0.5115016 0.11450201 0.7555423
000140 30 ba 37 3f 63 de 7c bf 21 08 25 bf 54 2b 27 3e
       0.71768475 -0.98776835 -0.6446553 0.16325122
000150 8c 71 3c 3d 08 82 1e bf 1d 38 40 c0 e1 75 59 3f
       0.046006724 -0.6191716 -3.003425 0.84945494
000160 b9 d7 20 3d 41 ec 06 b9
       0.03926823 -0.00012867247

fc3.bias f4 [3]
000000 00 75 11 bf 15 0e c4 be bb 7a 69 be
       -0.5681915 -0.38291994 -0.22800724

exp_avg f4 [30, 5]
000000 45 93 9c 3a 8c b2 54 3a d6 2a 15 3b 05 32 6e 3b
       0.0011945745 0.0008113764 0.0022761128 0.0036345732
000010 05 32 6e bb 00 00 00 00 00 00 00 00 00 00 00 00
       -0.0036345732 0.0 0.0 0.0
000020 00 00 00 00 00 00 00 00 04 55 ce 3a d9 00 16 3b
       0.0 0.0 0.0015741889 0.002288869
000030 86 32 90 3a 78 89 a8 bb 78 89 a8 3b 1b 87 ff 3b
       0.0011001385 -0.0051433407 0.0051433407 0.0077980882
000040 b2 6c 78 3c 52 9a 8d 3b 40 d6 21 bc 40 d6 21 3c
       0.015162634 0.004321375 -0.009877741 0.009877741
000050 4c 2e 3b ba 4d c3 99 bb 73 ae c4 ba 52 0e 0b bb
       -0.00071403827 -0.004692471 -0.0015005603 -0.0021218252
000060 52 0e 0b 3b d5 9e 9b 3a a2 bc f2 3b a4 1f a8 3a
       0.0021218252 0.0011872897 0.0074077407 0.0012826812
000070 5a 43 9b bb 5a 43 9b 3b d8 50 55 3b ed cc 97 3b
       -0.0047382535 0.0047382535 0.0032549407 0.0046325834
000080 78 a2 00 3b 9d c9 99 3b 9d c9 99 bb 8b b5 c3 ba
       0.001962809 0.0046932236 -0.0046932236 -0.0014931423
000090 36 19 25 3a d9 dd 9a ba 29 35 c4 3b 29 35 c4 bb
       0.0006298007 -0.0011815383 0.0059877825 -0.0059877825
0000a0 58 c8 e1 b8 f7 04 f2 ba 80 16 b6 36 4d 9a 67 bb
       -0.00010766153 -0.0018464614 5.426642e-06 -0.0035339773
0000b0 4d 9a 67 3b 32 79 63 3b 9e d6 13 3b 14 1b 88 3b
       0.0035339773 0.003470969 0.0022558342 0.0041536186
0000c0 70 6e 9e 3b 70 6e 9e bb 5e ca e3 b8 c2 8c 44 3a
       0.0048349425 -0.0048349425 -0.00010861897 0.0007497781
0000d0 01 65 16 39 b4 1b 67 3c b4 1b 67 bc 30 38 cb b8
       0.00014342742 0.014105726 -0.014105726 -9.69026e-05
0000e0 af d2 56 b9 35 3c 4f 3a 39 81 eb 3a 39 81 eb ba
       -0.00020487116 0.0007905395 0.0017967589 -0.0017967589
0000f0 56 49 30 ba 8a 2c b2 3a 51 21 58 ba 13 d8 13 bb
       -0.0006724795 0.0013593596 -0.00082447106 -0.002255921
000100 13 d8 13 3b 50 45 85 3b e9 f2 d2 3b b4 d1 34 3a
       0.002255921 0.0040671006 0.0064376486 0.0006897703
000110 f2 04 a5 bb f2 04 a5 3b b4 95 bf 3b 03 52 dd 3b
       -0.00503599 0.00503599 0.0058467034 0.0067541613
000120 63 86 47 3a 22 0b f2 ba 22 0b f2 3a 1c 2d 47 bb
       0.0007611273 -0.0018466453 0.0018466453 -0.0030391878
000130 24 54 f2 bb 92 ab ac b9 ec 23 92 3b ec 23 92 bb
       -0.0073952843 -0.00032934226 0.0044598486 -0.0044598486
000140 d0 0d ed 39 1d f1 17 3b bc 93 84 3a f3 8c 3d bb
       0.00045214454 0.0023184486 0.0010114829 -0.0028923124
000150 f3 8c 3d 3b fe 9f 70 3a a6 01 82 39 c8 f6 3e b9
       0.0028923124 0.0009179114 0.0002479676 -0.00018211745
000160 58 94 56 3b 58 94 56 bb 5e 30 07 bb ab 81 81 3a
       0.0032742228 -0.0032742228 -0.0020628194 0.0009880563
000170 2c d2 ed ba 70 f9 56 ba 70 f9 56 3a 00 00 00 00
       -0.0018144301 -0.0008200621 0.0008200621 0.0
000180 00 00 00 00 00 00 00 00 00 00 00 00 00 00 00 00
       0.0 0.0 0.0 0.0
000190 80 fb bd 3b 68 40 2c 3c 1f a6 2d 3b 02 ce 23 bb
       0.0057978034 0.0105134025 0.002649672 -0.0024994616
0001a0 02 ce 23 3b d4 32 1c 3a b0 61 fa 38 4d 64 96 3a
       0.0024994616 0.0005958502 0.00011939125 0.0011473984
0001b0 e7 e4 a6 bb e7 e4 a6 3b d6 e8 47 bc db c9 86 bc
       -0.0050932053 0.0050932053 -0.0122015085 -0.016453674
0001c0 7c eb f7 ba 44 89 a0 3c 44 89 a0 bc 84 58 f6 3b
       -0.0018914784 0.019596703 -0.019596703 0.007517876
0001d0 17 da 0a 3c 52 3e 27 3a f0 89 60 3a f0 89 60 ba
       0.008474848 0.0006379831 0.0008565476 -0.0008565476
0001e0 82 0c 4c bb 30 8c 3d b9 eb 6a 8b ba 90 3a 98 3b
       -0.0031135385 -0.00018076668 -0.0010636722 0.004645653
0001f0 90 3a 98 bb 00 28 26 35 11 0c a9 bb 06 c8 d3 ba
       -0.004645653 6.1898027e-07 -0.005158909 -0.0016157634
000200 88 f4 9e 3b 88 f4 9e bb 7e bc 55 3a 45 00 77 3b
       0.0048509277 -0.0048509277 0.00081533927 0.003768937
000210 be fc fb 3a 20 2c 81 3b 20 2c 81 bb 9c 49 3d bc
       0.0019225103 0.0039420277 -0.0039420277 -0.011553194
000220 5e e6 4e bc ac a6 5a bb f4 e5 9b 3b f4 e5 9b bb
       -0.012628166 -0.0033363504 0.004757637 -0.004757637
000230 3e 86 2d bb d7 9c 84 bb 48 15 a8 b9 17 84 79 bb
       -0.002647772 -0.004047017 -0.00032059313 -0.0038073116
000240 17 84 79 3b 20 8d 13 b6 e8 d7 3d b9 b4 71 a6 ba
       0.0038073116 -2.1986853e-06 -0.00018104876 -0.0012698681
000250 40 65 51 3c 40 65 51 bc
       0.012780488 -0.012780488

exp_avg_sq f4 [30, 5]
000000 bb ae 9a 39 73 83 89 39 b4 3b 96 39 0c 6b 00 39
       0.00029503353 0.00026228614 0.00028654712 0.0001224691
000010 0c 6b 00 39 00 00 00 00 00 00 00 00 00 00 00 00
       0.0001224691 0.0 0.0 0.0
000020 00 00 00 00 00 00 00 00 8e db 4c 39 5f 01 c4 39
       0.0 0.0 0.00019536747 0.00037385055
000030 e6 f6 e5 38 1f 45 14 39 1f 45 14 39 a7 23 1d 3a
       0.00010965559 0.0001414013 0.0001414013 0.00059943873
000040 b2 7b 82 3a 05 51 2c 39 61 5c b5 39 61 5c b5 39
       0.0009955077 0.0001643338 0.00034591838 0.00034591838
000050 80 7f 1d 38 23 0d 9b 38 bb c5 52 38 63 7d a0 37
       3.755046e-05 7.393423e-05 5.0252052e-05 1.9131874e-05
000060 63 7d a0 37 fb 4e a1 39 75 d2 32 3a bc 6e 7d 39
       1.9131874e-05 0.00030767158 0.00068215217 0.00024169212
000070 4f 42 86 39 4f 42 86 39 3d 2c ae 39 21 aa 84 39
       0.00025607875 0.00025607875 0.00033220826 0.00025303758
000080 68 19 de 39 9f 94 97 39 9f 94 97 39 1d a4 17 39
       0.0004236207 0.00028911696 0.00028911696 0.00014461619
000090 7c 51 7c 39 27 00 07 39 f5 9b 19 39 f5 9b 19 39
       0.00024062948 0.0001287466 0.00014649316 0.00014649316
0000a0 60 97 5e 39 01 49 76 39 e9 3b 05 39 52 80 80 38
       0.00021227961 0.00023487584 0.00012706187 6.127417e-05
0000b0 52 80 80 38 8a 0a 0f 3a 8a e5 f9 39 37 6f e0 39
       6.127417e-05 0.00054565875 0.00047664 0.0004280747
0000c0 cd 08 9b 39 cd 08 9b 39 9b f6 b8 33 61 c2 ff 36
       0.0002957046 0.0002957046 8.613025e-08 7.622221e-06
0000d0 b0 f7 49 35 56 06 11 3a 56 06 11 3a b6 65 3c 38
       7.523877e-07 0.0005532255 0.0005532255 4.491742e-05
0000e0 c6 fe 96 36 99 3e fd 38 d0 c8 d0 38 d0 c8 d0 38
       4.500008e-06 0.0001207564 9.955617e-05 9.955617e-05
0000f0 99 85 1c 37 c2 20 9b 36 94 1a de 37 58 c5 72 38
       9.32943e-06 4.6231735e-06 2.6476839e-05 5.7881087e-05
000100 58 c5 72 38 12 2d b6 39 94 28 ba 39 b3 34 3a 39
       5.7881087e-05 0.00034747325 0.00035506918 0.00017757974
000110 dd 61 00 39 dd 61 00 39 fc cd ea 39 83 84 29 3a
       0.00012243488 0.00012243488 0.00044785428 0.0006466584
000120 5c 06 ab 38 b4 b6 10 39 b4 b6 10 39 17 07 cd 39
       8.1551e-05 0.00013800972 0.00013800972 0.0003910593
000130 3a d0 fc 39 a7 e7 1b 39 08 8f 04 39 08 8f 04 39
       0.00048220326 0.00014868249 0.00012641784 0.00012641784
000140 f6 d4 e2 38 bf 08 33 39 69 06 b0 38 6c 20 a6 38
       0.00010816187 0.00017074028 8.393528e-05 7.921536e-05
000150 6c 20 a6 38 5b 04 52 38 eb b2 02 35 07 7a 88 39
       7.921536e-05 5.0071958e-05 4.8689134e-07 0.0002603086
000160 7e e5 13 3a 7e e5 13 3a 55 3f 7a 3a 17 94 58 3a
       0.0005641802 0.0005641802 0.00095461804 0.0008261813
000170 e3 d9 66 3a ea f1 8e 39 ea f1 8e 39 00 00 00 00
       0.00088062714 0.0002726459 0.0002726459 0.0
000180 00 00 00 00 00 00 00 00 00 00 00 00 00 00 00 00
       0.0 0.0 0.0 0.0
000190 59 3a 0e 3a 5c 55 1c 3a 5a 00 b1 39 fe 48 ca 38
       0.00054255646 0.0005963647 0.00033760333 9.6457065e-05
0001a0 fe 48 ca 38 67 43 4e 39 d7 0f ae 39 ea 60 16 39
       9.6457065e-05 0.000196708 0.00033199668 0.00014341218
0001b0 22 3c 3f 39 22 3c 3f 39 2e 9d f2 3a 72 b4 fa 3a
       0.0001823758 0.0001823758 0.0018509978 0.0019127263
0001c0 82 82 01 3a 44 64 21 3a 44 64 21 3a 6e b5 19 3a
       0.00049404067 0.00061566033 0.00061566033 0.0005863522
0001d0 3a a7 21 3a b8 e8 75 39 eb a5 27 39 eb a5 27 39
       0.00061665813 0.00023451715 0.0001598817 0.0001598817
0001e0 ea 50 02 39 d2 cf 29 39 b5 34 8e 38 9b 98 a1 38
       0.00012427909 0.00016194515 6.780905e-05 7.705503e-05
0001f0 9b 98 a1 38 26 c6 dc 39 5c 08 8f 3a aa e5 b7 38
       7.705503e-05 0.00042109302 0.0010912525 8.768898e-05
000200 b1 2e dc 39 b1 2e dc 39 d3 13 e0 39 7b ce 31 3a
       0.00041996458 0.00041996458 0.0004273938 0.0006782782
000210 92 05 4b 39 48 06 16 39 48 06 16 39 03 3b 27 3a
       0.00019361664 0.00014307455 0.00014307455 0.0006379338
000220 14 ae 15 3a 03 8e ff 38 03 1a 98 38 03 1a 98 38
       0.00057098386 0.00012185799 7.25277e-05 7.25277e-05
000230 c7 06 89 39 02 1c 88 39 5c a1 a8 39 e8 d9 46 39
       0.00026135726 0.0002596081 0.0003216368 0.00018963928
000240 e8 d9 46 39 40 f1 9a 33 f5 f9 a7 39 ed 2c dd 37
       0.00018963928 7.215067e-08 0.00032038955 2.6366173e-05
000250 55 28 57 3a 55 28 57 3a
       0.0008207609 0.0008207609

exp_avg f4 [30]
000000 d5 6c 0e bb 00 00 00 00 a8 fd ad 3b 3f 02 7f 3c
       -0.002173235 0.0 0.005309779 0.0155645
000010 0a 19 7a bb 35 d7 06 3c 71 73 88 3b ae eb 2b 3a
       -0.0038161897 0.00823002 0.0041641523 0.00065582513
000020 30 c8 51 bb 82 b1 8a 3a eb b8 ae 3c 79 14 04 3b
       -0.003201019 0.0010581466 0.02132841 0.0020153804
000030 65 5a e7 3b 66 79 d1 3b 7a 18 5d bc 22 4f 5e 3b
       0.0070603364 0.0063926456 -0.013494605 0.0033921679
000040 35 e6 b7 3a 7c 6c 82 3c ca 30 3d bb 00 00 00 00
       0.0014030399 0.01592087 -0.0028868192 0.0
000050 a0 1a 42 3c 51 95 96 bb 89 62 8a 3b 01 cb 06 3c
       0.011847168 -0.0045954366 0.004223172 0.008227111
000060 c0 b7 bc ba 3b eb 27 bc 70 57 7e b9 6d b0 08 bc
       -0.0014398023 -0.010248954 -0.000242559 -0.008342844
000070 4a e0 b0 bb 80 0a 51 bc
       -0.005397831 -0.012758851

exp_avg_sq f4 [30]
000000 e0 a5 3d 3a 00 00 00 00 d8 39 9c 3a 3c 5f 82 3b
       0.0007234495 0.0 0.0011919094 0.003978638
000010 3d 23 7c 39 ef b4 0e 3b 74 2b e6 3a eb dd 5b 3a
       0.0002404572 0.0021775325 0.0017560557 0.00083872554
000020 c2 3d d1 39 94 b2 6c 3a 50 aa 1a 3b 68 53 15 3a
       0.000399096 0.0009029296 0.002360005 0.00056963274
000030 2b 01 95 39 af 52 43 3a 6d 64 15 3b 33 20 9b 3a
       0.00028420365 0.00074509805 0.0022795454 0.0011835158
000040 ce 96 1e 3a 80 2a 9a 3b 3c 24 87 3a 00 00 00 00
       0.00060496933 0.0047047734 0.0010310481 0.0
000050 f0 7e 50 3a 2c ec c5 3a 44 0f ac 3b 8f 59 25 3a
       0.00079534855 0.0015100292 0.0052508432 0.0006307596
000060 99 f3 fc 39 a0 1d f8 3a 1b f4 e9 3a db ee 4f 3a
       0.0004824668 0.0018929727 0.0017849238 0.00079320156
000070 cc 39 59 3a 10 a3 b7 3b
       0.00082865055 0.0056041554

exp_avg f4 [30, 30]
000000 e6 87 9b b8 00 00 00 00 bb ab d0 b8 ab a9 c1 3a
       -7.416289e-05 0.0 -9.9502e-05 0.0014775296
000010 ec 4f f4 ba a2 d2 da ba 97 0c ff b9 2b 2a 0c 3b
       -0.0018639541 -0.0016694854 -0.0004864677 0.0021387439
000020 ed be c3 bb 03 7f 20 ba 8b 28 c1 3a 98 82 a2 3a
       -0.005973688 -0.0006122442 0.0014736814 0.0012398539
000030 55 8b bf 39 4e 46 01 3a 98 36 60 3a 04 a2 1e 3b
       0.0003653417 0.00049314357 0.0008553057 0.0024205456
000040 85 06 b4 b9 45 55 c5 39 e9 2d 2b b9 00 00 00 00
       -0.00034337133 0.000376383 -0.00016324934 0.0
000050 25 68 16 3a f1 74 a1 bb 3b fb 35 3b 3a 18 98 b9
       0.00057375646 -0.0049272706 0.0027768153 -0.0002900975
000060 b0 06 f0 3a fc d4 0e ba 95 fe c4 bb 30 bc 16 3b
       0.001831254 -0.0005448607 -0.006011794 0.0023000352
000070 ac e5 89 39 c6 29 33 b9 2c f3 64 bb 00 00 00 00
       0.00026301795 -0.00017086332 -0.003493498 0.0
000080 98 e2 0f bb 5a 47 93 ba ce 1a f5 b6 9e 2c 83 bb
       -0.0021955129 -0.0011236474 -7.3046895e-06 -0.0040031215
000090 7c 57 26 38 a3 e8 99 bb ac 81 05 b8 de a8 be ba
       3.965896e-05 -0.004696922 -3.1830437e-05 -0.0014546176
0000a0 73 eb 84 b9 24 84 b3 39 30 fb 9e 38 7c f2 3c bb
       -0.00025352425 0.00034239993 7.5808144e-05 -0.0028831055
0000b0 26 52 bb ba 3d d5 85 bb 80 96 66 bb 70 2f 7a af
       -0.001429145 -0.004084258 -0.003518492 -2.2754221e-10
0000c0 1f 48 da b8 00 00 00 00 a2 eb 63 bb 53 a5 00 bb
       -0.00010408484 0.0 -0.00347779 -0.001962979
0000d0 ce 08 1a bb 36 2c aa b9 81 cd 85 bb 94 35 7c b7
       -0.0023503783 -0.00032457866 -0.004083336 -1.5032845e-05
0000e0 6c 77 a0 39 50 41 d6 ba 4d 89 af ba b9 b9 16 b9
       0.00030606554 -0.0016346369 -0.0013392359 -0.00014374302
0000f0 02 8c a5 ba 00 00 00 00 86 2a 8f b9 be 2b 42 3a
       -0.0012630227 0.0 -0.00027306768 0.0007407031
000100 04 00 00 80 b9 56 61 ba 24 77 85 37 7d 93 65 3a
       -6e-45 -0.00085959915 1.5910315e-05 0.0008757634
000110 04 00 00 00 46 60 58 ba 64 52 8c 3a 7c be b8 b9
       6e-45 -0.0008254092 0.0010705707 -0.00035237137
000120 9a e8 7a 39 ee ac a7 b9 26 d2 c1 39 ff bb be 3a
       0.00023928509 -0.00031981565 0.000369684 0.0014551877
000130 80 c8 b8 b7 f5 d4 23 ba d4 ca 45 ba 00 00 00 00
       -2.2027874e-05 -0.00062496896 -0.00075451774 0.0
000140 8c a3 26 b8 60 f6 40 b8 cb b5 c6 3a 56 81 9f b8
       -3.97298e-05 -4.600582e-05 0.001516038 -7.6058015e-05
000150 4c df 61 3a e2 18 6a 3a 04 00 00 80 05 f8 98 3a
       0.00086163427 0.00089300994 -6e-45 0.0011670595
000160 06 39 2b 3a ed 66 e7 39 58 1e eb 39 00 00 00 00
       0.00065316295 0.0004413644 0.000448453 0.0
000170 4b 05 3d 3a 38 aa 59 37 1a 75 60 39 c7 bd 7c 3a
       0.00072105665 1.297384e-05 0.00021405928 0.0009641316
000180 30 d7 83 39 41 30 71 38 fc a4 99 3a 99 5e 09 3a
       0.00025146594 5.7503818e-05 0.0011722143 0.00052402314
000190 04 00 00 00 76 e6 02 b7 00 00 00 00 c7 c4 35 38
       6e-45 -7.802262e-06 0.0 4.3337026e-05
0001a0 04 00 00 80 2e 13 02 85 c7 04 22 3a 85 ec 13 07
       -6e-45 -6.1160934e-36 0.00061805215 1.1128558e-34
0001b0 35 f1 61 39 00 00 00 00 04 00 00 80 32 0f c0 3a
       0.00021547529 0.0 -6e-45 0.0014652966
0001c0 d2 68 a8 b5 12 1f 59 b6 25 a0 77 37 54 af a7 b8
       -1.2547482e-06 -3.2353605e-06 1.4759634e-05 -7.995838e-05
0001d0 40 a5 8f 39 04 00 00 00 e0 86 25 37 e6 d3 59 b3
       0.00027398206 6e-45 9.866169e-06 -5.071697e-08
0001e0 04 00 00 00 00 00 00 00 04 00 00 00 04 00 00 80
       6e-45 0.0 6e-45 -6e-45
0001f0 04 00 00 00 04 00 00 00 04 00 00 00 04 00 00 00
       6e-45 6e-45 6e-45 6e-45
000200 04 00 00 00 04 00 00 00 00 00 00 00 00 00 00 00
       6e-45 6e-45 0.0 0.0
000210 00 00 00 00 04 00 00 00 00 00 00 00 04 00 00 80
       0.0 6e-45 0.0 -6e-45
000220 04 00 00 00 04 00 00 00 04 00 00 00 00 00 00 00
       6e-45 6e-45 6e-45 0.0
000230 04 00 00 00 04 00 00 00 00 00 00 00 04 00 00 00
       6e-45 6e-45 0.0 6e-45
000240 04 00 00 80 04 00 00 00 04 00 00 00 00 00 00 00
       -6e-45 6e-45 6e-45 0.0
000250 04 00 00 00 04 00 00 00 c0 f9 e6 37 00 00 00 00
       6e-45 6e-45 2.7534436e-05 0.0
000260 c9 cd d0 b9 92 87 28 bb a2 55 4b 3b 8c fa 6e 3a
       -0.00039826173 -0.0025715572 0.0031026383 0.0009116314
000270 fa e3 e4 ba a8 90 4f 38 68 25 e9 3b 98 36 8a 39
       -0.0017462962 4.9487368e-05 0.007115055 0.00026362087
000280 40 07 b5 ba 65 c3 9f ba e9 96 23 39 c0 3d 13 b8
       -0.0013811365 -0.0012188969 0.0001560111 -3.510504e-05
000290 5e c0 8f ba 8e ed 27 3a 77 f6 0a 3a a4 29 c5 b9
       -0.0010967364 0.0006405943 0.00053010084 -0.00037605793
0002a0 7c 09 91 b8 00 00 00 00 4a 62 38 39 bd f4 83 3b
       -6.9159054e-05 0.0 0.00017584223 0.004026978
0002b0 a4 b8 9c ba 5e df 29 b8 06 13 29 b9 71 d7 6d ba
       -0.0011956883 -4.0500767e-05 -0.00016124183 -0.0009072936
0002c0 58 5a 39 3b 08 a7 04 bb 69 e9 96 3a c7 ca 16 ba
       0.002828261 -0.002024116 0.0011513653 -0.0005752262
0002d0 74 cd 14 3b 00 00 00 00 00 c2 9a 3a b7 28 6c 3a
       0.0022705467 0.0 0.0011807084 0.00090087525
0002e0 ea 70 4c b9 31 9e 17 3b ab 36 2f b9 a4 b7 8d 3b
       -0.0001949702 0.002313506 -0.00016709666 0.00432487
0002f0 86 aa cd ba 9a 31 f3 39 d5 8f 63 39 06 07 e0 b9
       -0.0015691079 0.00046385528 0.00021701989 -0.00042729842
000300 bc 23 a6 38 b6 47 08 3b db 56 94 3a 77 ea 7f 3b
       7.922153e-05 0.0020794696 0.0011317389 0.0039049664
000310 40 2b 23 3b d4 f1 0d 37 25 0f 6b 39 00 00 00 00
       0.0024897605 8.46056e-06 0.00022416988 0.0
000320 78 b3 39 3b 00 ec 3e b7 d9 21 0b 3b 30 5d b7 38
       0.0028335731 -1.13798305e-05 0.0021229892 8.7434775e-05
000330 14 1d 7e 3b a5 6d 28 3a 9c 5a c6 ba 87 b7 6c 3a
       0.0038774656 0.000642503 -0.0015133205 0.0009030033
000340 0f f1 b3 3a e6 70 15 39 80 67 f3 36 00 00 00 00
       0.0013728457 0.00014251805 7.2540133e-06 0.0
000350 bc 38 62 ba a6 4e f3 b9 26 28 94 ba 56 05 60 ba
       -0.000862967 -0.0004640717 -0.0011303469 -0.0008545717
000360 98 03 0f bb de 09 9b 3a 3c 67 85 bb 16 39 56 ba
       -0.002182221 0.0011828502 -0.0040711444 -0.00081719586
000370 a1 9d a3 b9 4f 4e 8e 38 da 6e 33 25 ec b6 e4 39
       -0.00031207225 6.785674e-05 1.5563333e-16 0.00043623836
000380 06 26 40 3a ca 78 a9 3a 82 03 29 ba 89 0a 91 b9
       0.00073298847 0.0012929675 -0.0006447361 -0.00027664404
000390 6e e3 23 b9 00 00 00 00 94 e2 37 3a 1b f6 55 bb
       -0.00015629616 0.0 0.0007014659 -0.003264791
0003a0 6c c7 ed 39 e8 d9 ce b8 73 34 8c 3a aa 4b 29 bb
       0.00045352743 -9.863434e-05 0.0010696783 -0.0025832453
0003b0 0d ab 96 bb 4c a3 82 39 23 75 0f ba 97 6a 00 bb
       -0.0045980276 0.00024917198 -0.0005472472 -0.0019594782
0003c0 52 38 0e 3b 00 00 00 00 0b 08 09 3b 50 c7 4e 3b
       0.002170105 0.0 0.0020909335 0.0031551905
0003d0 48 60 a6 38 8c 31 c4 3a 42 4e a6 3a 14 d1 af 3b
       7.9334306e-05 0.0014968379 0.0012688118 0.0053655
0003e0 56 c5 cc ba f8 99 7b 39 b3 65 fb 3a e6 b8 c4 3a
       -0.0015622776 0.00023994583 0.0019180089 0.0015008717
0003f0 bc aa 77 3a 32 eb 29 3b b6 3a 19 3b f9 be a7 3b
       0.00094477437 0.002592754 0.0023380942 0.0051192013

exp_avg_sq f4 [30, 30]
000000 1c 49 b0 36 00 00 00 00 b8 32 13 39 f1 08 24 39
       5.25372e-06 0.0 0.00014037907 0.0001564359
000010 4b 92 88 39 f0 86 e9 38 2b 8f fc 39 71 95 98 39
       0.00026048938 0.0001113544 0.00048171854 0.00029103042
000020 5c c8 81 3a c3 c7 00 37 97 3c 03 38 52 c1 e9 37
       0.0009901631 7.675905e-06 3.1289263e-05 2.7865786e-05
000030 22 0c 96 35 fc 44 8c 36 a9 02 1d 38 0f 8c 66 39
       1.1179402e-06 4.180356e-06 3.7434194e-05 0.00021986685
000040 a8 cf 1f 39 95 da 05 38 c0 83 c7 35 00 00 00 00
       0.0001524078 3.191324e-05 1.4865e-06 0.0
000050 9f d6 cc 36 69 9d 16 3a 9c 3b 6a 39 c8 af fe 35
       6.104659e-06 0.0005745502 0.00022338185 1.8975634e-06
000060 24 b3 81 39 0a 37 cb 39 b3 48 25 3a ac 04 08 39
       0.00024738268 0.00038760185 0.00063050835 0.00012971711
000070 b5 53 f5 38 10 55 b7 38 06 d1 03 39 00 00 00 00
       0.00011698102 8.741964e-05 0.00012571001 0.0
000080 9e 2b 52 38 95 10 b5 37 f3 99 7d 32 1e 87 29 39
       5.0108523e-05 2.1584603e-05 1.4761542e-08 0.00016167431
000090 0f 48 8f 35 c1 67 6b 39 f4 a4 42 37 f1 12 1c 38
       1.0675302e-06 0.00022449998 1.1601707e-05 3.721094e-05
0000a0 32 0d 07 34 fb f8 04 35 5f 0a 16 36 75 9f 9c 38
       1.2577655e-07 4.9536146e-07 2.2357779e-06 7.468361e-05
0000b0 2b ae 46 38 c4 e1 19 39 92 02 f6 38 5d d8 bb 30
       4.7369085e-05 0.00014675321 0.00011730673 1.3667535e-09
0000c0 af c1 93 35 00 00 00 00 39 03 bc 38 4c ad 87 38
       1.1008723e-06 0.0 8.965139e-05 6.469581e-05
0000d0 69 17 7e 38 97 f2 49 36 62 5d 3c 39 9a dc d4 36
       6.058012e-05 3.009254e-06 0.00017963865 6.3437737e-06
0000e0 dd 95 90 37 28 8d 42 38 43 97 74 37 07 22 1c 34
       1.7235923e-05 4.6384666e-05 1.4578752e-05 1.4541011e-07
0000f0 b9 26 9d 38 00 00 00 00 7d 27 2f 38 a9 2e 92 38
       7.493556e-05 0.0 4.1760028e-05 6.970514e-05
000100 88 12 8f 2b a8 f7 04 38 42 16 bd 31 cb 15 eb 38
       1.0165905e-12 3.17019e-05 5.5031544e-09 0.000112097325
000110 d5 ec c0 29 23 d8 0c 38 33 14 52 37 c3 54 58 38
       8.5675966e-14 3.3579894e-05 1.2521678e-05 5.1577354e-05
000120 6b c9 aa 37 2f 30 93 38 bc b0 10 38 f8 c6 f2 38
       2.0359372e-05 7.018481e-05 3.4496872e-05 0.0001157652
000130 24 41 30 38 4a 37 9d 36 17 5f 72 36 00 00 00 00
       4.2022337e-05 4.685401e-06 3.611616e-06 0.0
000140 ca 03 f7 37 21 d0 ad 35 23 f1 11 39 ec 88 e3 33
       2.9446459e-05 1.2950078e-06 0.00013918108 1.0595417e-07
000150 86 18 bc 38 c3 51 e6 36 96 8f 56 22 a5 aa 4a 39
       8.9691064e-05 6.8640525e-06 2.9078422e-18 0.00019327791
000160 21 3f 41 37 c0 1b 0d 36 f2 c8 12 37 00 00 00 00
       1.1518395e-05 2.102679e-06 8.749064e-06 0.0
000170 a1 0b 0f 38 44 2c c4 31 62 f2 f8 37 62 a8 0f 38
       3.4104687e-05 5.709383e-09 2.9676772e-05 3.4250676e-05
000180 9c f1 a8 37 36 81 cd 34 a0 56 20 39 f6 44 76 37
       2.0139669e-05 3.827824e-07 0.0001529106 1.4678799e-05
000190 5d 72 0a 20 16 45 1f 35 00 00 00 00 1b 42 04 34
       1.1726894e-19 5.933265e-07 0.0 1.2317507e-07
0001a0 18 96 26 0a 65 e7 ca 2e 2b 73 a2 37 c0 40 55 34
       8.020839e-33 9.2270004e-11 1.9365534e-05 1.9860727e-07
0001b0 74 94 0c 36 00 00 00 00 8d 86 05 1e 55 14 0e 39
       2.0948037e-06 0.0 7.068786e-21 0.0001354975
0001c0 e7 a8 c9 33 a4 bb 89 31 16 2b a5 30 8b d9 19 36
       9.390515e-08 4.008557e-09 1.2017576e-09 2.2925403e-06
0001d0 ac 4a 96 37 1b 2c 5c 28 2e 7f 65 36 9a f1 da 32
       1.7916165e-05 1.2222017e-14 3.4197687e-06 2.5488408e-08
0001e0 84 80 f3 06 00 00 00 00 cc 5c 4c 08 4f 8f 55 01
       9.159528e-35 0.0 6.14981e-34 3.922474e-38
0001f0 14 5c 8d 08 44 9b 59 08 37 39 8c 05 29 ef b6 06
       8.507776e-34 6.5483576e-34 1.3186554e-35 6.8812205e-35
000200 d3 6a 0c 09 f5 87 ab 07 00 00 00 00 00 00 00 00
       1.6902116e-33 2.5809129e-34 0.0 0.0
000210 00 00 00 00 0c 25 90 04 00 00 00 00 6f 10 01 00
       0.0 3.388826e-36 0.0 9.7731e-41
000220 1a 68 d6 08 04 54 ce 03 73 0e d0 06 00 00 00 00
       1.2904131e-33 1.2126881e-36 7.8262135e-35 0.0
000230 96 0b 75 03 10 00 14 09 00 00 00 00 3d f3 90 06
       7.201233e-37 1.7814881e-33 0.0 5.4524186e-35
000240 a9 e4 1e 02 29 10 00 06 c6 5a 3d 06 00 00 00 00
       1.1673629e-37 2.4085997e-35 3.561364e-35 0.0
000250 09 0c b6 06 c2 5f 0c 00 e2 9e 6f 38 00 00 00 00
       6.8478475e-35 1.136377e-39 5.713001e-05 0.0
000260 35 6e d7 38 75 b1 f7 38 ba b1 9d 38 63 e0 98 38
       0.000102725266 0.00011810932 7.5194475e-05 7.28972e-05
000270 92 84 25 39 99 59 2f 39 24 2c 85 39 f6 4e f4 37
       0.00015785013 0.00016722678 0.00025400624 2.9123836e-05
000280 fc 75 d1 37 38 78 41 38 cd f3 74 37 1f 81 3f 38
       2.4969682e-05 4.612675e-05 1.4600298e-05 4.5658202e-05
000290 5e 95 1d 38 42 7d 14 39 7e 0f bd 38 06 79 85 37
       3.7570826e-05 0.00014161042 9.015108e-05 1.5911191e-05
0002a0 37 06 ee 35 00 00 00 00 75 37 c3 37 f1 b1 3e 39
       1.7734191e-06 0.0 2.3271636e-05 0.000181861
0002b0 33 e3 3f 39 d7 d8 0f 35 12 4f 0d 39 74 38 f3 38
       0.00018299818 5.3587195e-07 0.00013476264 0.00011597658
0002c0 81 54 f6 38 56 58 43 39 e2 ee 34 38 f2 c4 aa 37
       0.00011745934 0.00018629557 4.313782e-05 2.0357289e-05
0002d0 9d a7 d2 38 00 00 00 00 d1 e8 8c 38 9c 0a 80 37
       0.00010044801 0.0 6.719086e-05 1.526373e-05
0002e0 bb 8f 82 37 a5 37 2a 39 d6 12 2c 36 64 fd 0e 39
       1.5564137e-05 0.00016233193 2.5640961e-06 0.0001363657
0002f0 47 d2 3a 39 2c 0c 4e 38 4e a8 18 33 7e 8d e4 36
       0.00017816677 4.9125563e-05 3.554333e-08 6.8114014e-06
000300 b8 44 ca 35 00 42 5d 38 5a ec ba 37 99 df b9 38
       1.5070173e-06 5.2751973e-05 2.2282988e-05 8.863136e-05
000310 e1 02 df 38 09 18 e5 32 f5 0a d1 35 00 00 00 00
       0.00010634005 2.6670039e-08 1.5574902e-06 0.0
000320 ea dd 4a 38 8b 2a 5a 39 af 9f 47 38 3f 83 29 36
       4.8367227e-05 0.00020805949 4.7594014e-05 2.5259358e-06
000330 10 bf d3 38 a9 f5 89 36 d2 ea 32 38 0c da 3d 38
       0.00010096852 4.111517e-06 4.26572e-05 4.5264183e-05
000340 52 be 7e 37 10 4b 81 32 a5 c8 2e 38 00 00 00 00
       1.5183892e-05 1.5051711e-08 4.1671698e-05 0.0
000350 01 6e ce 38 fb 98 28 37 81 e5 34 39 12 58 30 39
       9.843335e-05 1.0049199e-05 0.00017251635 0.00016817477
000360 6a c3 65 39 d9 20 a7 38 fb 4e 3c 3a cb 99 fe 37
       0.00021911939 7.969299e-05 0.00071834 3.0350775e-05
000370 d6 6d fa 34 b9 85 f7 35 f1 ba 88 2d d2 f8 09 37
       4.6646045e-07 1.8441852e-06 1.5544429e-11 8.223769e-06
000380 b3 6b 76 37 c9 92 cb 37 05 9b da 38 49 56 ad 37
       1.4687818e-05 2.4267838e-05 0.00010423925 2.0663387e-05
000390 dc 85 0f 36 00 00 00 00 8e c0 1d 37 f7 a3 0a 3a
       2.1386577e-06 0.0 9.402762e-06 0.0005288715
0003a0 70 7a ff 36 03 cb 6c 36 dd 04 80 38 32 7d c5 38
       7.613846e-06 3.5284909e-06 6.1044215e-05 9.4170115e-05
0003b0 6d 5d b3 39 4c 08 66 34 98 5b e3 37 9d 84 45 37
       0.00034211148 2.1423438e-07 2.710316e-05 1.17729915e-05
0003c0 5d a9 ed 38 00 00 00 00 e8 11 d3 38 ec 8c db 38
       0.00011332587 0.0 0.00010064599 0.000104689825
0003d0 43 c7 d1 37 70 37 36 39 3f 5c 3e 38 bb ff 91 39
       2.500753e-05 0.00017377525 4.538544e-05 0.0002784709
0003e0 c8 aa 6a 39 cd 4c 42 38 03 7b aa 37 bc 98 19 38
       0.000223796 4.632473e-05 2.0322861e-05 3.6620288e-05
0003f0 57 ef 81 37 e2 cd a0 38 53 1d 78 38 3e 15 67 39
       1.548945e-05 7.667743e-05 5.9155118e-05 0.0002203779

exp_avg f4 [30]
000000 c0 89 92 ba 4e 9b 3a bb 34 60 13 3a d6 22 35 3a
       -0.0011179969 -0.0028473916 0.00056219404 0.0006909793
000010 04 00 00 00 98 54 b1 b9 fe e4 06 3b e0 a6 27 bb
       6e-45 -0.00033823098 0.0020583267 -0.0025581643
000020 d4 02 77 3b 7e 1b 11 b9 80 21 91 bb db f1 e8 ba
       0.0037690895 -0.00013838519 -0.0044290423 -0.0017772274
000030 fc d3 14 bb 04 00 00 00 04 00 00 00 77 7c 04 3b
       -0.002270936 6e-45 6e-45 0.0020215788
000040 a4 d6 c2 39 98 4a ab b8 00 00 00 00 78 9f 3d 3a
       0.00037162483 -8.1678096e-05 0.0 0.00072335405
000050 74 bb 21 bb ff 72 f2 ba e5 75 ba 3a 00 00 00 00
       -0.002467838 -0.0018497406 0.0014225809 0.0
000060 04 00 00 00 86 f9 81 3b 0e e8 87 3b 43 1f a2 bb
       6e-45 0.003966513 0.004147536 -0.0049475743
000070 04 00 00 00 04 00 00 00
       6e-45 6e-45

exp_avg_sq f4 [30]
000000 3d 8f 30 3a 05 82 cd 38 82 fc 55 38 ff 7e 28 38
       0.00067352114 9.79938e-05 5.1018324e-05 4.0172596e-05
000010 29 0c 62 08 29 cf 8e 39 da dd d1 38 73 ed 83 39
       6.8023695e-34 0.00027238697 0.0001000722 0.0002516318
000020 e8 cf 81 39 26 d6 0f 39 a2 8b e7 38 dc 67 2a 39
       0.000247597 0.00013717319 0.00011040947 0.00016251154
000030 48 4f 7e 39 40 e4 9e 21 a6 58 94 29 be e2 6f 37
       0.00024252862 1.0766914e-18 6.5878984e-14 1.4298303e-05
000040 53 71 76 38 cd a4 0c 39 00 00 00 00 bc 52 93 39
       5.8756512e-05 0.00013412834 0.0 0.00028099667
000050 e9 eb 2d 3a 8f 5b c3 39 8f ad c9 37 00 00 00 00
       0.00066345796 0.00037261515 2.4041887e-05 0.0
000060 6f b9 ad 0b 46 91 2c 39 01 6b 37 39 75 57 ba 39
       6.6916186e-32 0.00016457317 0.00017492102 0.00035541845
000070 7d 89 c5 1e 53 77 f6 17
       2.091505e-20 1.5927499e-24

exp_avg f4 [3, 30]
000000 6a 7b 07 39 c4 ab 84 38 26 92 bc 39 ea 82 a8 38
       0.00012920579 6.326244e-05 0.00035967043 8.035249e-05
000010 04 00 00 80 28 ca eb 39 4b 02 92 ba a6 d2 2c 3a
       -6e-45 0.0004497331 -0.0011139599 0.00065926684
000020 9a fd 8f 3a 79 83 3d ba 32 54 e0 b7 36 c9 14 b8
       0.0010985613 -0.0007229369 -2.6742087e-05 -3.5473342e-05
000030 b5 e0 fa 3a 00 00 00 00 04 00 00 80 ce 03 8a 34
       0.0019140454 0.0 -6e-45 2.570727e-07
000040 39 05 25 39 ce 49 21 ba 00 00 00 00 d5 06 89 3a
       0.00015737572 -0.00061526604 0.0 0.0010454307
000050 68 10 29 38 aa 24 fa 39 74 f8 c0 38 00 00 00 00
       4.030802e-05 0.00047711033 9.2015514e-05 0.0
000060 04 00 00 00 5c 8e 6b 3a d8 aa be b6 48 55 15 3a
       6e-45 0.0008985752 -5.68233e-06 0.0005696607
000070 00 00 00 00 04 00 00 80 e8 81 88 3a 16 66 90 b8
       0.0 -6e-45 0.0010414692 -6.88547e-05
000080 64 79 59 3b b0 9c f5 35 04 00 00 80 a4 b6 a2 bb
       0.0033183927 1.8299525e-06 -6e-45 -0.00496562
000090 fa 3d c9 ba 59 fc 2a bb 80 43 4e 39 e7 7e b6 3a
       -0.0015353553 -0.0026090352 0.00019670837 0.0013923318
0000a0 50 d2 f1 b9 c2 31 0d bb a6 03 e0 3a 04 00 00 00
       -0.00046123797 -0.002154455 0.0017090931 6e-45
0000b0 04 00 00 80 c8 3e 8c b7 bc fc de b9 cc 39 03 ba
       -6e-45 -1.6718535e-05 -0.0004253144 -0.0005005866
0000c0 00 00 00 00 39 bb dc 3b b6 35 df ba e0 ac 98 bb
       0.0 0.006736186 -0.0017029557 -0.00465928
0000d0 c8 b6 58 ba 00 00 00 00 04 00 00 00 fc d4 29 3c
       -0.00082669826 0.0 6e-45 0.010365721
0000e0 11 a4 f4 38 60 b4 d7 3b 04 00 00 00 04 00 00 80
       0.000116653864 0.0065827817 6e-45 -6e-45
0000f0 a8 e0 4e 39 3c 41 a0 bb 82 7a 49 b9 28 fa d6 b8
       0.00019729382 -0.004890589 -0.00019214491 -0.000102509104
000100 04 00 00 00 8c fe b3 3a cc 90 5f bb 1e 28 9c 3b
       6e-45 0.0013732477 -0.0034113405 0.0047655245
000110 06 40 e5 bc 58 7b 61 ba 63 2d aa 3b ec 47 94 3a
       -0.02798463 -0.00086014485 0.005193399 0.0011312938
000120 e7 24 80 bc 00 00 00 00 04 00 00 80 97 dc 49 b8
       -0.015642596 0.0 -6e-45 -4.8127575e-05
000130 ef 2c 3d b8 83 66 ee bb 00 00 00 00 18 54 29 bc
       -4.510296e-05 -0.007275404 0.0 -0.010334991
000140 f4 49 17 bb de a6 b5 3b f2 58 13 ba 00 00 00 00
       -0.002308485 0.0055435738 -0.0005620859 0.0
000150 04 00 00 00 69 3d e6 bc 68 2e 8c b8 e4 83 5b bc
       6e-45 -0.028105455 -6.684364e-05 -0.013398144
000160 04 00 00 80 04 00 00 00
       -6e-45 6e-45

exp_avg_sq f4 [3, 30]
000000 0b 27 cc 36 6f a6 e9 36 cf b7 17 37 85 ee 65 33
       6.084219e-06 6.9633165e-06 9.043098e-06 5.353515e-08
000010 0a 29 d5 02 e3 e5 c6 38 06 e8 9e 38 50 fb dd 37
       3.1321092e-37 9.4841955e-05 7.577245e-05 2.646228e-05
000020 22 e5 69 3a 60 c1 74 37 9b b4 70 37 0e c0 c5 34
       0.0008922388 1.4588557e-05 1.4347165e-05 3.6833848e-07
000030 11 6d 84 39 00 00 00 00 cf 3f 69 26 13 d6 03 31
       0.00025258263 0.0 8.092459e-16 1.9184696e-09
000040 5d 39 ee 35 7a b9 a6 38 00 00 00 00 3e da a8 38
       1.7749077e-06 7.9500445e-05 0.0 8.051515e-05
000050 9c d6 15 37 7b 66 2d 38 2b 4c d9 35 00 00 00 00
       8.93106e-06 4.1341857e-05 1.6189928e-06 0.0
000060 86 37 6a 08 29 c4 08 3a 1e ce 1f 33 ff ab 2c 39
       7.048208e-34 0.00052172184 3.7207535e-08 0.00016467272
000070 00 00 00 00 89 23 dd 10 d3 2e 94 39 30 4c 06 37
       0.0 8.722388e-29 0.00028263647 8.004761e-06
000080 1c 95 58 38 ae f6 28 35 8d ed 8e 03 1c e6 d4 3a
       5.1637282e-05 6.2943843e-07 8.400549e-37 0.0016242894
000090 e1 66 89 39 43 d6 21 39 c2 8b 82 3b d9 3e 14 38
       0.00026207327 0.00015433975 0.0039839456 3.534448e-05
0000a0 4c 35 8f 38 3b 7a 25 37 e1 f7 05 3b 8b 8a 6e 1c
       6.828699e-05 9.863225e-06 0.0020441937 7.8926657e-22
0000b0 6c e5 75 25 8e 1c 6e 36 55 49 65 37 dd c4 36 39
       2.1328094e-16 3.5481385e-06 1.3666538e-05 0.0001743021
0000c0 00 00 00 00 8b ac 3e 3a b7 90 eb 39 4b 5d 0e 3a
       0.0 0.0007273636 0.00044930514 0.0005430772
0000d0 95 dd c5 36 00 00 00 00 ec 8a ba 08 c5 18 5e 3b
       5.896853e-06 0.0 1.1227128e-33 0.0033889276
0000e0 5c 38 1a 35 61 46 55 3a 25 d6 27 1c cf 3d 18 12
       5.7451484e-07 0.00081357925 5.553244e-22 4.803893e-28
0000f0 e5 bf 58 39 27 b5 39 39 94 88 15 38 93 f2 47 35
       0.00020670852 0.0001771046 3.5651567e-05 7.448627e-07
000100 6f 38 1a 00 1c d2 47 3b 1e 98 46 3a 00 ea 8a 39
       2.407967e-39 0.0030490225 0.0007575768 0.00026495755
000110 5f 9b ac 3b 5c 19 01 39 d1 71 2a 39 5e 75 76 38
       0.005267545 0.00012311846 0.00016254863 5.8760277e-05
000120 1b 70 07 3b 00 00 00 00 cc c8 a0 28 30 ca 54 30
       0.0020666185 0.0 1.785065e-14 7.7412476e-10
000130 90 a0 3f 36 ef 50 01 3a 00 00 00 00 6f 37 a9 39
       2.8554678e-06 0.00049330195 0.0 0.00032275493
000140 9b 83 c4 39 86 3f b9 39 c7 d1 02 38 00 00 00 00
       0.00037482087 0.00035333278 3.1189786e-05 0.0
000150 9f a3 81 08 e0 a6 35 3b c5 0f 05 37 79 57 6b 3a
       7.802372e-34 0.0027717873 7.931089e-06 0.0008977573
000160 f4 01 00 00 c8 34 39 12
       7e-43 5.8440765e-28

exp_avg f4 [3]
000000 b8 58 ac 38 c8 d2 33 3a a6 94 6f bb
       8.218124e-05 0.0006859717 -0.0036557107

exp_avg_sq f4 [3]
000000 8f 9b 13 38 4d 6f fc 39 11 5b 10 3a
       3.5192406e-05 0.0004814811 0.0005506734
